save/my_model.pt (torch, 140943 bytes, 8 tensors)

conv_layer1.weight f4 [6, 1, 5, 5]
000000 9a 78 89 bd 7d 15 a4 3e 5a 3c b3 3d a4 26 cb 3d
       -0.06712456 0.32047644 0.087517455 0.099194795
000010 0b 89 58 be de a4 1d 3e 22 64 10 3f 99 e6 61 3d
       -0.21146028 0.15394923 0.5640279 0.055151556
000020 89 b9 bc be a9 c2 5b be 62 c5 f0 3e 90 b2 07 3f
       -0.36860302 -0.21460976 0.4702559 0.5300684
000030 2b 28 a6 be 27 21 ee be cd 7c a4 bd 08 1d b7 3e
       -0.3245252 -0.46509668 -0.08031616 0.35764337
000040 dc f7 b3 3e 45 d5 c2 be 71 35 2a be 11 31 9f 3d
       0.3515004 -0.38053337 -0.16621949 0.077730305
000050 48 45 9f 3e 0e 68 ee 3e 1a ac ca 3d 03 fc 9b bd
       0.31107545 0.46563762 0.09896107 -0.07616427
000060 ba 2b 98 3d 58 78 82 bd e4 de 73 be 7f db 5b be
       0.07430215 -0.0637061 -0.23815495 -0.2147045
000070 b8 ee 32 bd 7c b8 04 3e 5b 0f 3a bd da 08 7d bd
       -0.04368469 0.12961 -0.0454248 -0.06177602
000080 2b 1e 4c be 56 5c e9 bc 27 d9 11 3e 44 45 dd bd
       -0.19933383 -0.028486412 0.14242993 -0.10804227
000090 bf a8 0c be 3c e2 5e be 2b 08 b7 bb 19 bc 31 3e
       -0.13736247 -0.21765989 -0.0055856905 0.1735691
0000a0 97 a2 48 be 7b d3 b4 3c 96 87 2a bd 6c 27 a1 bd
       -0.19593273 0.022073498 -0.04163321 -0.07868847
0000b0 b2 36 c0 3e 6c 1f 52 bc 6d 10 5b be 56 8e 59 be
       0.3754173 -0.012824874 -0.21392985 -0.21245703
0000c0 d4 1d 1b 3e 6a 73 af 3e 8d 30 eb 3e fc 3e 0b 3f
       0.15148097 0.3426774 0.4593548 0.5439298
0000d0 d2 43 0d 3f 98 ad a6 3d 14 83 ee 3d 4a 96 5c 3e
       0.5518161 0.08138579 0.11646095 0.21541706
0000e0 f2 e7 8e 3e f5 f0 86 be de 41 9a bd a0 a2 e4 be
       0.27911335 -0.2635571 -0.075320944 -0.44655323
0000f0 1c 0d 90 3e e4 99 bb bd 14 38 cf be 50 1f b1 be
       0.28135002 -0.09160212 -0.40472472 -0.34594202
000100 fc bc 2f be c6 7b a0 bd db d4 84 be 35 be 7e be
       -0.17161936 -0.07836108 -0.25943646 -0.24877246
000110 d5 eb 84 be 05 21 8d bd 78 13 f3 bc 01 d2 6b be
       -0.25961176 -0.068910636 -0.02967237 -0.23029329
000120 1a 2a c7 bd 7f 91 91 3d 3d e9 26 bd bd 4f 61 be
       -0.09724827 0.07107829 -0.040749777 -0.22003074
000130 cc 72 3e be b8 c4 03 be e5 73 b4 bd b3 6a 5e 3d
       -0.18598479 -0.12868011 -0.08811168 0.054300975
000140 c1 dd 2e be a7 7f 58 be 0a bc eb be f5 6f 1d be
       -0.1707678 -0.21142446 -0.460419 -0.1537474
000150 48 d0 20 3e 93 ab 13 be 8f 46 24 be ac 20 49 be
       0.15704453 -0.14420919 -0.16042541 -0.1964137
000160 40 53 87 3e ff fc f1 3e 75 1a b6 bd 78 b9 fd bd
       0.26430702 0.47263333 -0.08891765 -0.12388891
000170 f4 7b 62 3e 2f 82 1c 3f a1 0f 82 3c 5c 3c 61 3e
       0.22117597 0.61136144 0.015876593 0.21995682
000180 de 99 6c 3e 20 c1 ce 3e 0b 87 7d 3e 86 2f 63 3d
       0.2310557 0.40381718 0.24758546 0.055465244
000190 06 1d 03 be 3a e4 c7 bd 61 25 1e be c5 63 28 bd
       -0.1280404 -0.09760328 -0.15443946 -0.041110773
0001a0 e9 d5 91 3e 4d ad 11 3e 35 cf 8a 3e da cc 9a 3d
       0.28483513 0.14226265 0.2711121 0.075586036
0001b0 b8 17 ee be 01 ce 0e bf e9 02 a6 bd bb 5a de 3e
       -0.4650247 -0.55783087 -0.08106024 0.43428597
0001c0 5c 09 98 3d a7 c1 d7 be 2b ac f0 be 84 e3 97 be
       0.0742366 -0.42139933 -0.47006354 -0.29665768
0001d0 82 6c b3 3e ae 6a 0e 3f 1d fb c1 3e 80 98 8b be
       0.35043722 0.5563153 0.37886897 -0.27264786
0001e0 bb 21 85 be 19 8c 73 be ea d4 c1 3e b3 b3 03 3f
       -0.26002297 -0.23783912 0.37857753 0.51446074
0001f0 4c 4e 96 3e b8 85 31 bd 9f 77 2e bd a0 3b 2a 3e
       0.2935661 -0.043340415 -0.04259455 0.16624308
000200 8f c8 27 bd 5e 98 f7 3d ef 94 24 bd e6 fb 98 be
       -0.040962752 0.120896086 -0.040181097 -0.29879683
000210 85 05 14 bf d5 67 89 be 58 eb c9 be a9 2e ea 3d
       -0.5782092 -0.2683703 -0.39437366 0.11434681
000220 58 eb 95 be 20 c5 7d be fa b5 c5 be bc e8 b3 bd
       -0.29281116 -0.24782228 -0.386154 -0.08784625
000230 28 18 1f 3d 93 36 84 3e d9 90 80 3e 23 07 e7 3d
       0.038841397 0.25822887 0.2511051 0.11280658
000240 98 6d 81 3e 77 12 48 3e 09 66 cf 3e 40 e2 e5 3e
       0.25278926 0.19538294 0.40507534 0.44899178
000250 d5 13 fb 3e 71 67 cd 3d
       0.49038568 0.100294955

conv_layer1.bias f4 [6]
000000 e3 9e 00 bd 46 59 4b be 8d b6 95 3c 9e 3b 4e 3e
       -0.031401526 -0.19858274 0.018275524 0.2013993
000010 09 e5 9b 3e 3e f2 69 3d
       0.30448177 0.057115786

conv_layer2.weight f4 [16, 6, 5, 5]
000000 19 57 13 bd ea f1 c5 3d 99 ee 5a 3d eb 14 3b 3e
       -0.035971735 0.09665282 0.0534502 0.18269698
000010 22 26 c7 3d 83 ee 84 be 2d b3 99 bd dd 7b f0 bb
       0.0972407 -0.2596322 -0.07504878 -0.0073389844
000020 f3 59 e0 3c 46 d8 c1 3d 72 43 ad bd 39 1f 47 be
       0.027386641 0.09465079 -0.0846013 -0.19445504
000030 5f 4d 4a be ac 5b ae bc e5 fd b3 bd a1 dc 77 3d
       -0.19756077 -0.021283947 -0.08788661 0.060513142
000040 35 88 92 bd 63 0f 8f bd a0 3a 8c bc 93 0a 62 3c
       -0.07154886 -0.06985357 -0.017117798 0.013796466
000050 fe 49 a9 bc 0c bd cc bb bb 5f 95 3d a0 8b 43 bd
       -0.020665165 -0.006248122 0.0729365 -0.04774058
000060 43 ec db bc fe 94 01 3e b2 0d 49 3d 1a 93 0f 3e
       -0.026846057 0.12654492 0.049085326 0.14020959
000070 4c 85 fe 3c 81 92 fc 3c 30 90 d8 3c 3a 71 79 bc
       0.03106942 0.030831577 0.026435941 -0.015224749
000080 28 0a 2d 3d c5 5b 8e bd d7 8b 3e bd 7f 3f be bd
       0.042246014 -0.069510974 -0.04652008 -0.09289455
000090 e3 24 63 bc 7d f2 22 3d 59 fe 29 3d c8 45 67 bc
       -0.013863775 0.039782036 0.04150233 -0.014115758
0000a0 07 c2 e2 bb 7f ca 42 bd 2d 2e db 3d a4 63 17 3e
       -0.0069201025 -0.047556397 0.10702167 0.14784104
0000b0 e4 45 f4 3c bf 73 6c bd 0e 48 8a 3c 6a b6 95 3d
       0.029818483 -0.05772757 0.016880061 0.07310183
0000c0 e3 24 87 3d 04 2a 73 3c 19 8c 54 bc 0c 4e 20 3d
       0.065988325 0.01484156 -0.012972855 0.03913693
0000d0 a9 a8 aa 3d 59 43 b4 bc f9 61 59 3e b4 1a 18 be
       0.083329506 -0.02200477 0.2122878 -0.14853936
0000e0 d9 09 bd bc d5 6b 41 3d 5f 1e ef 3d 5e 01 74 3d
       -0.023075985 0.047221977 0.11675715 0.059571616
0000f0 22 8e 6e 3b 0c f9 0f 3e 5c 1a ca 3d a8 93 ec 3d
       0.0036400636 0.14059848 0.09868309 0.11551601
000100 86 dc 32 3e f1 36 b9 bd 8f 9d 0c be 01 b7 02 be
       0.17466936 -0.09043682 -0.13731979 -0.12765123
000110 c2 4d 07 be e3 61 a4 bb 25 9f 85 bc d1 6a 8e be
       -0.13213256 -0.005016552 -0.016311238 -0.2781587
000120 06 6d a4 be d3 da 09 be 1d 96 92 bd 89 ca ca bd
       -0.32114428 -0.13462381 -0.07157538 -0.09901912
000130 43 c6 96 bd 80 eb 90 3d 7d f6 4c 3d b0 9c 8a bd
       -0.07362034 0.07076168 0.050039757 -0.06768167
000140 48 e4 29 be 7b 03 5e be b2 94 0f bd 18 90 62 bd
       -0.16590989 -0.21681015 -0.035053916 -0.0553132
000150 71 90 2c bd 4e 6c a3 bd b4 24 7e be 1f a8 6e be
       -0.042129938 -0.07979642 -0.24818689 -0.2330632
000160 cc 0d 5f be 04 e7 a5 bd 91 52 0b 3e 87 67 33 3e
       -0.21782607 -0.08100703 0.13605715 0.17519961
000170 ed 3e cd 3c 08 e3 01 3e 34 75 81 3d 01 1b eb 3d
       0.02505442 0.12684262 0.06321183 0.1147976
000180 e7 24 60 3e 02 8f 6e 3e 77 28 2c 3d dc 99 94 bd
       0.21889077 0.2329674 0.042030778 -0.07255909
000190 4e d6 09 bd 4b c7 2a 3c e0 39 2a 3d 3b 4d 85 bd
       -0.033651643 0.010423492 0.0415591 -0.06508871
0001a0 31 9b 6a be f1 85 25 be 53 0d 31 be 96 9c 74 bd
       -0.22910763 -0.16164376 -0.17290239 -0.059719644
0001b0 c5 bf ec bd e5 35 4d be 4d 19 9e bd 16 0f c5 bd
       -0.11560015 -0.2004009 -0.077196695 -0.09622018
0001c0 25 35 86 be f2 69 6f be 92 14 91 bd 6e 29 43 3e
       -0.2621242 -0.23380259 -0.070840016 0.19058773
0001d0 2b c3 07 3e 53 fc c8 3b 9e 05 e7 bb 7d a2 70 bc
       0.13258044 0.006133595 -0.00705023 -0.014687178
0001e0 0c 76 fd 3d f8 61 18 3e 1c 81 84 3d 29 40 16 3d
       0.12376031 0.14881122 0.06469938 0.03668228
0001f0 df 4c a0 3b 49 82 32 be f1 8f de bd 3a 4c 09 bc
       0.0048919762 -0.17432512 -0.108672984 -0.00837999
000200 a8 e4 12 be 97 83 65 be 49 96 c3 bd fe 70 0f bd
       -0.14345038 -0.22413479 -0.09550149 -0.035019867
000210 14 10 77 bd c4 87 8a bd 29 8a 39 be b6 7c d5 3d
       -0.060318068 -0.067641765 -0.1811911 0.10424177
000220 af d7 21 bc c3 c3 a1 bd 37 36 ca bd c2 c7 bc bd
       -0.009878083 -0.07898667 -0.09873622 -0.09217788
000230 7a cd 5f 3e 3d 2c 87 3e d8 af 3c 3e 8b c2 6d 3d
       0.21855727 0.2640094 0.18426454 0.05804686
000240 8e a6 47 3e 0e cd 11 3e 90 3d b6 3d 52 e9 9c 3e
       0.1949713 0.14238378 0.08898461 0.3064676
000250 1c 73 f2 3d 53 e3 10 3e ef ae b7 bb 2b fa 0e 3e
       0.118383616 0.14149217 -0.0056055705 0.13962619
000260 61 ea 97 3d c7 d0 80 bb 2e f2 23 bd 48 ce 01 3e
       0.07417751 -0.003931138 -0.040025882 0.12676346
000270 ce d8 d6 3c 2d 70 be bb 62 61 11 be b3 c1 88 bd
       0.026226427 -0.0058117122 -0.14197305 -0.0667757
000280 9f 8d 4c bc f2 b1 aa bd ea 01 44 be 31 38 57 be
       -0.012484937 -0.083347216 -0.19141355 -0.21017529
000290 0d aa 8a bd d9 19 d3 3d 17 c9 ec 3c 5c 38 87 3b
       -0.06770716 0.103076644 0.02890448 0.0041265916
0002a0 2d ba 85 bd 49 70 4b be 57 5b 6a 3c f3 08 05 bd
       -0.06529651 -0.19867052 0.014304004 -0.032479238
0002b0 74 bc 17 bd 5c 36 a8 3d 12 3b 08 3e e9 5f 4f bd
       -0.037044957 0.08213493 0.13303784 -0.050628576
0002c0 ba e6 bf bd 55 03 68 3d 6c 1f aa bc 32 09 a2 bd
       -0.093701795 0.056643803 -0.020766936 -0.0791191
0002d0 84 4b 53 3c 74 d8 06 bd 0e 17 b1 3c 90 21 4e bd
       0.012896422 -0.03292127 0.021617439 -0.050324976
0002e0 2e 8a a0 bd 73 88 a2 3d fe d0 b2 bd df 1d 5a be
       -0.07838856 0.07936182 -0.08731268 -0.21300457
0002f0 f6 bb db bd bb d7 f8 bd 57 82 90 3d 21 11 88 bc
       -0.1072921 -0.12150522 0.0705611 -0.01660973
000300 14 51 12 be 11 7a 5c bd 9d cf 16 bd 1a 1f 8f bc
       -0.14288741 -0.05382735 -0.03681909 -0.017470885
000310 50 99 33 bb 2c f4 2a 3c e7 03 70 3d 14 61 da 3c
       -0.0027404614 0.010434192 0.05859747 0.026657619
000320 63 03 d6 bc fc 71 7f 3b 50 79 8e bd 54 20 39 be
       -0.026124662 0.0038977852 -0.06956732 -0.18078738
000330 c5 e7 6d 3d df e5 85 be e7 97 74 be 7e 14 55 be
       0.05808236 -0.2615194 -0.23886071 -0.20808598
000340 2c f0 58 be 04 94 92 bd de bf 57 3c b7 bc 7b bd
       -0.21185368 -0.07157138 0.013168303 -0.06145927
000350 c9 56 cd 3b c4 00 20 3e 28 44 c7 3e 6b 36 52 3d
       0.006266449 0.15625292 0.38919187 0.05132143
000360 46 ce 04 3e 98 e5 9b 3e be 43 ac 3e a3 3e ab 3d
       0.12969312 0.30448604 0.33645433 0.083615564
000370 90 a1 af 3c b3 5e 48 bc 4c 34 a1 bd b9 60 e9 bd
       0.021439344 -0.012229609 -0.07871303 -0.113954015
000380 9f d6 1a bd 17 14 c1 3c e7 60 21 bd 6b 19 82 bd
       -0.037802335 0.02356915 -0.039399054 -0.06352504
000390 1b 8d ad 3c 74 0c 9f 3d ff d4 c1 3d da a8 e0 bd
       0.021185448 0.07766047 0.09464454 -0.10969706
0003a0 02 ac 3b 3e 96 18 5d 3e 58 74 2b 3e 67 a0 a6 bd
       0.18327335 0.2159141 0.167436 -0.08136063
0003b0 2c 78 4e 3d bd 63 89 ba 8a f5 fe bd 79 b8 ce bd
       0.050407574 -0.0010481995 -0.124491766 -0.10093779
0003c0 3b aa db bc cf 1d 4b bd e7 99 12 be d5 4b 26 be
       -0.02681457 -0.049588975 -0.14316522 -0.16239865
0003d0 09 df 15 3d cc 7e 97 3c 55 a0 79 bd df 2c c5 bd
       0.036589656 0.018493079 -0.06094392 -0.09627699
0003e0 70 1b 2e 3d bc 10 13 be 2c fb 76 3d d5 bd 06 3c
       0.042506635 -0.14361852 0.06029813 0.00822397
0003f0 6e 19 f6 bd 43 69 01 3d 35 f5 3d 3c 3d c3 2a bd
       -0.12016569 0.031594526 0.011594106 -0.0416901

conv_layer2.bias f4 [16]
000000 9d b9 aa 3d 69 40 b3 3d 9d e9 99 3d fd 2e b4 bd
       0.08336184 0.0875252 0.07515261 -0.08798025
000010 60 91 65 bd db 2f 29 3d a7 2b b9 3d b8 5d 89 bc
       -0.056046844 0.041305404 0.09041529 -0.016768321
000020 fb 49 7d bd 54 52 b6 bd 5e 43 99 bc 7a 93 e7 bd
       -0.06183813 -0.089024216 -0.018708881 -0.11307426
000030 e8 6e 1c 3d 48 2d 42 bd 08 24 df 3c 2e 11 06 be
       0.038191706 -0.047406465 0.02723886 -0.13092491

linear_layer1.weight f4 [120, 256]
000000 c5 3a 6d bb 23 b8 d5 3c 9a 21 9d bb e4 a0 f1 bd
       -0.003619836 0.02608878 -0.0047952654 -0.117982656
000010 c6 76 01 3e 79 8d 82 3d df 8b 8c bc 4f c2 9d 3d
       0.12642965 0.0637464 -0.01715654 0.07703077
000020 7d 6d ab 3d bf c7 60 3d 7d 64 94 3d 91 b1 e4 3c
       0.083704926 0.054877993 0.07245729 0.027916702
000030 45 a8 88 3d b9 f8 77 bd 79 a1 e7 bc 19 e1 04 3d
       0.0667272 -0.060539935 -0.028275238 0.032441232
000040 23 4a 6b 3d ce 0f d2 3d e2 a5 39 3d 42 62 1c bd
       0.05744375 0.10256921 0.045324214 -0.038179643
000050 45 f9 cb 3c 85 76 8f bd 71 07 c1 bd 9d f9 6b 3c
       0.024899134 -0.07005028 -0.094252475 0.014402774
000060 79 82 44 3d 95 08 e8 3c 46 62 49 bd d7 fd 5b 3d
       0.04797599 0.028324405 -0.049165986 0.053708877
000070 df 5c 26 3d 75 9b 7e 3d 13 8c bd 3b 00 35 63 3d
       0.040615913 0.062159974 0.0057845204 0.055470467
000080 e4 c6 9a 3c 04 61 0f bd c1 07 c9 3c 4e 66 62 3d
       0.018893667 -0.03500463 0.02453983 0.055273347
000090 2d 24 04 bc db 1d 56 3c ff 51 7a bb 87 ae 83 bb
       -0.008065266 0.013068642 -0.0038195846 -0.004018608
0000a0 2c 81 0a bd d6 3b 89 3c a0 fc ed 3c e9 7b 49 bd
       -0.033814594 0.016752165 0.029051125 -0.049190436
0000b0 a6 b3 9e bb 60 d4 36 3b 61 52 ae bd 6a 31 ae bd
       -0.004843193 0.0027897581 -0.08511806 -0.08505519
0000c0 06 40 27 bd b7 0a 9e bd 14 2b 3d bd 56 14 01 3d
       -0.040832542 -0.077168874 -0.04618366 0.031513534
0000d0 2b 6d b1 bd 82 56 e8 bd 2d 3a e5 3d 09 6b b8 3c
       -0.086634 -0.11344625 0.11192737 0.022511976
0000e0 5b 8d dc bd 82 2e 6c bd d0 a1 fa 3b 5c 7c a5 bd
       -0.10769149 -0.05766154 0.007648684 -0.0808036
0000f0 ee dc da 3b 85 0e 8a 3d c7 23 c4 3d d6 e5 f5 bb
       0.006679169 0.06741051 0.095771365 -0.007504205
000100 da 00 61 3d 35 9d df 3c 53 0e 19 bd 3b ef 23 bc
       0.054932453 0.027296642 -0.037367176 -0.010005767
000110 37 0d 78 3c 5e 50 aa bc 5e 37 ca bc 94 fa a2 3a
       0.015139869 -0.020790275 -0.024684604 0.0012434297
000120 39 c5 73 3d 89 1c 53 3d bd 85 99 3d 99 d3 1e 3d
       0.059514258 0.051540885 0.07496212 0.038776014
000130 62 35 77 bc 49 41 94 bd 38 05 81 bd 89 23 1a bd
       -0.015088411 -0.07239015 -0.062998235 -0.037631545
000140 00 42 99 3d ff 1e 52 3d 86 c0 46 bb f1 0c e6 b9
       0.074832916 0.05129909 -0.0030327155 -0.0004387866
000150 41 26 ac bc 35 36 cc bb 37 e7 0b 3b 6e 2e 06 bd
       -0.021014335 -0.006232048 0.0021347532 -0.032759123
000160 d9 38 d0 bd f0 d3 97 bd a1 69 98 bc 57 53 cb 3c
       -0.10167093 -0.07413471 -0.018605055 0.024820013
000170 77 b3 ac bc 05 ea bd bb 8b c6 a0 3b 68 3f 42 bd
       -0.02108167 -0.0057957196 0.0049064807 -0.04742375
000180 f4 89 63 3d 43 02 3e bd de 14 d8 bc 50 9c b7 bd
       0.055551484 -0.046388876 -0.026377138 -0.08965361
000190 16 0a 90 bd 3d d4 7a bd 24 54 c5 bd 14 36 80 bd
       -0.07033174 -0.061237562 -0.09635189 -0.062603146
0001a0 54 90 b0 3c 23 67 46 bd b4 d4 0e bd 89 9c 79 3d
       0.021553196 -0.048438203 -0.03487082 0.0609403
0001b0 88 fd 80 bc b0 e9 83 bc 26 01 86 3d 9f 74 01 3e
       -0.015745893 -0.016102642 0.06543188 0.12642144
0001c0 5e 4c 3d b9 14 1e 39 3d da 64 15 3d f3 74 66 3c
       -0.00018052894 0.0451947 0.036473133 0.014065969
0001d0 02 d0 3b bd d6 fa 43 bc b5 43 26 3d 00 bc b6 3d
       -0.04585267 -0.011961659 0.040591914 0.08922577
0001e0 54 ee 9f 3c c8 76 04 3c fd d8 14 bd 7a 3b 2d 3e
       0.019522823 0.00808496 -0.03633975 0.1691722
0001f0 a6 a6 6e bc ad 63 18 3d 84 ee f4 3c d5 ef 33 bd
       -0.014566099 0.037204433 0.02989889 -0.043929894
000200 b0 7d 4d b9 a9 fa 4e bc 62 6f 96 bc 16 bb a7 bd
       -0.00019597146 -0.012633004 -0.018363658 -0.08189981
000210 2d b8 72 bc 14 fa ac bd 88 e7 a9 bd 5f b6 b1 bc
       -0.014814419 -0.08446136 -0.08296114 -0.021693407
000220 a2 8c 9e bd 30 72 7a 3d e7 76 1a 3c 07 d1 d6 bc
       -0.07741667 0.061144054 0.009427763 -0.026222719
000230 a9 99 86 bd f3 af 1b bd d4 9c 21 bc 57 31 12 bd
       -0.06572277 -0.038009595 -0.009864051 -0.035691585
000240 f6 06 0d 3c b1 22 7e bd 68 ae 85 bc e8 49 41 3d
       0.008607617 -0.062044803 -0.016318515 0.047189623
000250 b0 68 7e 3d aa 7e 67 3a 44 7b 99 bb 97 12 0d bd
       0.062111557 0.0008830825 -0.004683884 -0.034441557
000260 d9 6f 77 3d 95 a5 37 3d 43 78 ba bc 9c a6 23 3d
       0.0604094 0.044835646 -0.022762423 0.039953813
000270 f4 2e d2 bb d1 20 2d 3d 19 4e b6 3c dc d2 a2 bc
       -0.0064142887 0.042267624 0.022254037 -0.019875936
000280 4a 35 09 bd c7 1d 6d bd cc f9 eb bd 90 4e 98 3c
       -0.033498086 -0.057889726 -0.11522254 0.018592149
000290 18 72 50 bd e0 3d b0 bc 40 61 00 be e3 a9 04 be
       -0.05089006 -0.02151388 -0.12537098 -0.12955432
0002a0 f5 e0 b5 bc fe dd 74 bd dc 66 38 bc d1 14 c6 bd
       -0.022201994 -0.05978202 -0.011254992 -0.09671939
0002b0 1b 51 87 3c 33 f0 42 bd 6d 43 49 bd 50 08 2a bd
       0.016518166 -0.047592353 -0.049136568 -0.041511834
0002c0 d7 d9 ca bc 9a 1a 09 bc a5 d3 8c 3d 5f 43 03 3d
       -0.024762077 -0.008368159 0.068763055 0.032046672
0002d0 18 23 ba 3c b3 d3 e0 3a 7a d8 89 3d a2 f7 dd ba
       0.022721812 0.0017152935 0.06730743 -0.0016934762
0002e0 73 29 a7 bc 39 c6 ca 3d 84 6c d0 bc b7 6d bd bb
       -0.020405507 0.09901089 -0.02544237 -0.0057809013
0002f0 1d 4f 83 3d 38 de 48 bd 25 5b d6 bd b8 62 9e bd
       0.06411574 -0.04904005 -0.10466603 -0.07733673
000300 5c 7f 5a 3d b4 47 a1 3c 55 59 32 bd b1 02 8a bc
       0.053344116 0.019687511 -0.043542225 -0.016846986
000310 ac 87 46 3d 4a c1 5d bd 07 2c 70 bc 1f b9 22 bc
       0.04846923 -0.054139413 -0.014658934 -0.009931832
000320 5e 7b 15 3d 9c 86 98 3c 0c b1 27 3c d2 7b 32 3d
       0.036494605 0.018618874 0.010235082 0.043575116
000330 03 8f 33 bd b1 d4 e6 bc f7 a9 99 bb 2b f1 6b 3d
       -0.04383756 -0.028177591 -0.004689451 0.057603043
000340 6a 30 35 bd 70 b0 e8 bb bc c1 bb 3c 18 63 c2 3c
       -0.044235624 -0.007101111 0.022919528 0.023728892
000350 39 2b 2d bd a4 82 e3 3c 4b 62 d6 3d 42 e2 af 3b
       -0.04227755 0.027772255 0.10467967 0.005367548
000360 e2 4b 7d 3b 22 15 8b bc b4 d6 27 3c d8 75 5e 3d
       0.0038649966 -0.01697785 0.01024406 0.054311603
000370 03 64 da 3c 62 94 4a 3b 47 de 97 3c d7 9a cc bc
       0.026659017 0.0030911197 0.018538607 -0.024976177
000380 5a df f8 bb 69 ff 76 bd ec ba d8 3d 17 18 0c 3b
       -0.007594985 -0.06030217 0.105825275 0.0021376663
000390 23 7c 5a bd da 08 66 bd e3 96 68 3d 13 76 4d 3c
       -0.053341042 -0.056160785 0.05678452 0.012540358
0003a0 12 16 d6 bc cd a2 12 be 36 6f cf bd dc 46 b8 bd
       -0.02613357 -0.14319916 -0.10128634 -0.0899789
0003b0 02 f9 8f bc d4 bf c8 bc 3d db cc bc 0e 24 1e ba
       -0.01757479 -0.024505533 -0.025006885 -0.0006032594
0003c0 4c a7 2b bc 42 51 34 3b 28 19 6d bc c3 c5 57 3d
       -0.010476898 0.0027514254 -0.01447133 0.052678835
0003d0 bb 06 df bd 77 44 65 bc 06 38 4a bc dd 11 99 3d
       -0.108899556 -0.013993374 -0.012342459 0.0747411
0003e0 9b d8 22 bd 60 f2 9b 3d a1 ac 1c bc 39 65 47 bc
       -0.039757352 0.07614589 -0.009562642 -0.012170129
0003f0 2e fc 80 bc 36 9d aa 3d 78 07 99 bc 3e 51 e3 3c
       -0.015745249 0.08330767 -0.01868032 0.0277487

linear_layer1.bias f4 [120]
000000 28 77 8c bd 81 09 5a 3d 9a e3 77 3d c3 ab 1d bd
       -0.06858665 0.05323172 0.060519792 -0.038493883
000010 7b 6e 7f 3b 80 6e 87 bc cd 8f 8a 3b 18 87 e1 3a
       0.0038975764 -0.016532183 0.004228568 0.0017206399
000020 e5 29 77 bd 6e 0b 4b 3b 70 13 38 bd 83 16 fb bc
       -0.060342688 0.0030982154 -0.044940412 -0.030650383
000030 72 77 ec bb a7 b0 8c 3d 2d 0c 93 bc 84 02 46 3c
       -0.0072163874 0.06869631 -0.017950142 0.012085561
000040 20 51 21 bd 71 ff 84 bd a2 4d 2f 3d 39 4c 11 3c
       -0.039384007 -0.06494034 0.042798646 0.008868271
000050 eb 42 df bc 45 22 11 3d c2 c4 9b bb 47 b8 11 bb
       -0.027253589 0.035433073 -0.00475368 -0.0022235082
000060 90 76 1f 3d d5 c4 33 bd df 0b ef 3c 5f 65 94 bb
       0.03893143 -0.043888886 0.029180465 -0.004528686
000070 23 ca 3f bd 79 92 7c bc b8 dc 0a bc 8d 0a 3b bd
       -0.046823632 -0.015415781 -0.008475475 -0.04566436
000080 15 ea 07 bc 8b a3 f9 bc 5d a2 3a 3d bc 0c 7d bd
       -0.008295556 -0.030473491 0.045564998 -0.061779723
000090 06 0c 52 bd b0 f0 db bc 18 25 93 3b 2d 60 1c 3d
       -0.051280998 -0.026848167 0.004490506 0.038177658
0000a0 46 11 ad 3b 3b 83 01 3d 2b ad 69 bd b0 03 89 3d
       0.0052816 0.03161929 -0.05704991 0.066901565
0000b0 e8 ca a1 3c c2 01 23 bd ba c1 72 3d 1e 2e 51 3d
       0.019750074 -0.0397966 0.059266783 0.05106937
0000c0 8e 00 33 3d d7 11 0a 3d b3 f4 27 bd 62 4d 0d 3d
       0.0437017 0.03370842 -0.041004848 0.034497626
0000d0 0b a3 34 bd ab d3 87 bc 0a cd 30 3d b1 3c 2a bd
       -0.044100802 -0.016580423 0.04316429 -0.041561786
0000e0 e7 a8 0f 3d 82 01 84 3b 15 af 29 3c 91 89 8a bc
       0.035073187 0.0040285 0.010356684 -0.0169113
0000f0 a8 b3 36 3c 88 ea 40 bd 11 61 17 bd ff be 23 bc
       0.011151232 -0.047098666 -0.036957804 -0.0099942675
000100 cb 46 77 bd 2d 32 73 3d 27 97 56 bd ea b5 a2 bc
       -0.060370248 0.059374023 -0.052390244 -0.019862134
000110 04 0f 8c bc 46 e1 8e bc fb 02 3a 3d 72 da f7 3c
       -0.017097004 -0.017441403 0.045413 0.03025553
000120 b1 6e 61 3c 43 bb 76 bc df bb 03 3d 1e 2a 12 3c
       0.013759301 -0.015059295 0.03216159 0.008921174
000130 87 c9 d3 bb 02 28 d3 3c 7b 0e 3f bc 42 78 37 bd
       -0.006463233 0.025775913 -0.011661167 -0.04479242
000140 8c 70 ac 3c 5b f8 4f bc 5a a6 25 3c 93 9f 46 3c
       0.02104976 -0.01269349 0.010110462 0.012123006
000150 91 89 5a 3d 05 ab e3 bc a3 10 fc 3c 7f c9 13 3d
       0.05335385 -0.02779151 0.030769652 0.036080834
000160 29 9d 5a 3b 28 7c d1 3a c5 74 22 bc 42 41 05 3c
       0.0033357835 0.0015982436 -0.009915535 0.008133234
000170 ed fd 21 3d 7a 84 06 3c 3a bd 59 bd 0d 60 1c bd
       0.039548803 0.008210296 -0.053158976 -0.03817754
000180 1f e9 44 3d 8d 12 53 bc a2 01 fa bc 82 3c 0c bd
       0.048073884 -0.012882841 -0.030518357 -0.034237392
000190 01 48 4d 3c 36 a7 08 3b e6 00 11 3b 92 b5 a9 3c
       0.012529374 0.0020851619 0.002212578 0.020716462
0001a0 e4 8e 79 3c 20 6c 7d 3d ec a4 35 3d 15 81 31 3d
       0.015231822 0.061870694 0.044346735 0.043335993
0001b0 ae d4 cf 3b 8d fc 09 bd ea ae d5 3a fc 7c 57 bc
       0.006342492 -0.033688117 0.0016302739 -0.013152357
0001c0 7e 32 3d bb 51 34 2e 3d 6a 45 0d bc cf 9a 80 3d
       -0.0028869207 0.04253036 -0.008622507 0.062795274
0001d0 97 85 3e 3d 43 09 66 bd f0 91 82 bd 1d ad 90 bc
       0.04651412 -0.056161176 -0.063754916 -0.017660672

linear_layer2.weight f4 [10, 120]
000000 3b 00 0c be a8 ab 61 3e 52 bc 24 3b cd a0 3f be
       -0.13671963 0.22038138 0.0025136662 -0.18713684
000010 12 9b 3d 3e 63 0d ba bd 2a 69 87 bd 1f c3 29 be
       0.18516186 -0.090845846 -0.06611855 -0.16578339
000020 03 9c cd 3d 62 69 2d 3e a3 3b 1d ba 67 92 25 be
       0.100395225 0.16934732 -0.0005997961 -0.1616913
000030 8f 67 45 3d 23 c8 15 3e 3b 89 a1 3d e4 5a 7b 3d
       0.048194464 0.14627127 0.07887503 0.061365977
000040 47 dd 0c bd 15 e1 88 be bf ba 53 3e a2 eb d8 bd
       -0.034390714 -0.26734224 0.20676707 -0.105918184
000050 79 5c cf 3d bc ac f8 3c 37 b4 8f 3e a7 16 1f be
       0.1012506 0.030355804 0.2806718 -0.15535985
000060 e8 ae 3c bd 5e 5c 41 3d cf 1a 1f be 93 ce 0c 3e
       -0.04606524 0.04720723 -0.1553757 0.13750677
000070 c5 86 56 be 4e d3 29 3e 12 26 b7 bb a6 44 0a 3e
       -0.20949848 0.16584513 -0.005589255 0.1350275
000080 00 c4 d9 3d 09 e2 06 be b8 6b 6b 3e 78 a6 fe 3c
       0.10633087 -0.13172163 0.2299031 0.031085238
000090 14 ae 1e 3e 67 32 ef bd f4 e8 2a 3d 0a 2a 17 3b
       0.15496093 -0.11679535 0.041726068 0.0023065829
0000a0 b6 d6 79 be 72 d2 33 bd 86 e8 1f be b8 cd 16 be
       -0.24398312 -0.04390187 -0.15616044 -0.14726913
0000b0 cb 90 3f 3e b3 41 57 bd 88 f3 b9 3c cd 3a 89 3e
       0.18707578 -0.05255289 0.022699133 0.26802674
0000c0 f2 af a5 3d b5 1f 16 3d 55 97 b4 bc e7 21 32 be
       0.080901995 0.036651332 -0.022044817 -0.17395745
0000d0 6c 77 ee 3c 03 64 1c be 4e 6d 33 bd ed 7b f0 bc
       0.02910968 -0.15272526 -0.043805413 -0.029355967
0000e0 37 46 79 be 66 3f aa 3d aa a3 83 bc 1f f5 7b 3c
       -0.24343191 0.083128735 -0.016069252 0.015378266
0000f0 ed f7 86 bc 53 99 04 3e b5 67 de 3d 2b 80 33 bd
       -0.016475642 0.12949114 0.10859624 -0.043823402
000100 89 a8 92 3d 38 4e bc bb 87 d1 2a 3e 5d b3 40 bc
       0.07161052 -0.005746629 0.16681491 -0.011761514
000110 c7 2f cc 3d 98 b5 87 3c 5c 5d 74 be 9f 5c 62 be
       0.0997005 0.016566083 -0.23863739 -0.22105645
000120 df 44 2a 3e 14 09 d9 bd 7a 4e 08 3e 88 db 52 3d
       0.16627835 -0.10597435 0.13311186 0.051478893
000130 c8 e6 3b bd cc f7 53 3e a5 b7 60 bd 8b 36 82 bd
       -0.045874387 0.20699996 -0.054862637 -0.063580595
000140 c5 c8 4f 3e af e0 cb 3d de 39 1d 3e 7b 14 2a bd
       0.20291431 0.09954964 0.15354106 -0.041523438
000150 74 33 a7 3d 8a 55 00 bd df 23 82 3e 2d bd 58 bc
       0.08164111 -0.031331576 0.25417992 -0.013228697
000160 33 92 a5 3d 30 f1 46 be 4d 35 37 3e a6 2c 2e 3e
       0.08084526 -0.19427943 0.17891426 0.1700922
000170 38 af f0 3d 90 5e 96 bd 9d 51 93 3d 37 c9 35 3e
       0.1175217 -0.07342255 0.07193301 0.17752539
000180 b3 a7 64 bd f3 c0 d0 3d f0 54 a9 bd c2 76 27 3e
       -0.055823993 0.10193052 -0.08268154 0.16353896
000190 72 15 cc bd 07 fc b8 bd 9a 2b 4e bd cf 5b 65 3d
       -0.09965028 -0.090324454 -0.05033455 0.05599576
0001a0 a1 20 84 be ff c1 f4 bd 3b 4c 61 3d c9 29 4d be
       -0.25806144 -0.11951064 0.05500434 -0.20035471
0001b0 41 ec 8d 3e dd f3 7f 3c ec 7a 3e be d0 98 9f bd
       0.2771931 0.015622106 -0.18601578 -0.077928185
0001c0 95 23 57 bb 17 2f 55 bd 2b a1 57 3e 35 9a 17 3e
       -0.0032827605 -0.05204686 0.21057574 0.14804919
0001d0 28 12 3f bd a1 93 8c 3c 70 0f 74 be fb 39 ea 3d
       -0.046648175 0.017160239 -0.23834014 0.1143684
0001e0 0c 0d 91 3e 7f b0 a6 bd 14 e1 6e bc 37 f1 29 bd
       0.28330266 -0.08139133 -0.01458003 -0.041489806
0001f0 ce 1f 71 bd 47 4f 84 be d5 b3 72 3e 5e 63 ab 3c
       -0.058868222 -0.25841734 0.23701413 0.020921405
000200 70 d1 65 3d 3a 0d 91 3d 46 b8 4d be 4d a8 ba 3d
       0.05610794 0.07082601 -0.20089826 0.09114132
000210 8b 69 1e bd bc 88 8f 3d 89 b1 fb bd d4 d1 16 be
       -0.038674872 0.07008502 -0.122897215 -0.1472848
000220 a1 f2 88 3d f2 37 87 bc 77 6e 2b 3e cc 4c e9 bc
       0.06686903 -0.016506169 0.16741358 -0.028479002
000230 cf a0 c4 3d 79 6c 71 3c 45 0e a2 3e 16 4b 49 3a
       0.09600984 0.014735335 0.31651512 0.000767873
000240 1d 37 eb 3d 97 0e 8f be 60 a1 45 bd f1 c5 99 3d
       0.114851214 -0.2794082 -0.048249602 0.075084575
000250 9d 7e 40 be 33 06 fa bd 00 eb 99 bc 96 9f 8c 3e
       -0.18798299 -0.12208214 -0.018788815 0.27465504
000260 88 5e 16 be 73 0b 99 be f7 be 00 bd e0 6e c3 3d
       -0.14684498 -0.29891548 -0.03143212 0.09542632
000270 c9 29 bc bd f2 bf 46 3d f4 27 a0 3d 9b ba d6 bd
       -0.091876574 0.048522897 0.078201205 -0.10484811
000280 bb bf f9 3d 44 9e 14 bd 3e 97 08 3c 71 9a 23 3e
       0.12194773 -0.036283746 0.00833684 0.15976883
000290 68 6d 77 3a ac 77 97 3d e8 aa c3 bd a9 c5 3b bd
       0.0009438605 0.073958725 -0.09554082 -0.0458428
0002a0 9e da ae bd 77 eb 18 be 96 4c ad 3e de 56 d7 3d
       -0.08537792 -0.14933573 0.33847493 0.105146155
0002b0 7e 03 77 be 30 89 4e be ad b2 d9 bd 6b 91 50 3c
       -0.24122426 -0.2016952 -0.10629783 0.012729983
0002c0 35 17 c5 bd 29 4c c5 3d 64 7a b0 3d 29 a7 16 bd
       -0.09623567 0.09633667 0.08617094 -0.03678051
0002d0 be de 84 3e 25 72 0e 3d 1d f5 cd bd f2 00 b6 bd
       0.2595119 0.034776825 -0.10056517 -0.08886899
0002e0 f7 b3 03 3e 2b 7d 44 3e 2e f0 ad bd 2f e5 9b 3c
       0.1286162 0.19188373 -0.08493076 0.019030182
0002f0 47 b2 37 3d 31 d2 af 3d 99 10 2a be a6 ce 96 be
       0.044847753 0.08585013 -0.16607894 -0.29454535
000300 13 bb 51 be 00 66 ef 3d 9a de eb 3d b0 30 c2 3c
       -0.2048152 0.11689377 0.11517067 0.023704857
000310 9c 98 c1 3d 60 fa aa bd 71 5d 00 3e 95 6a 19 bd
       0.09452936 -0.083485365 0.12535645 -0.03745516
000320 e0 ba 00 be d5 0f e8 3d 4b 7f 83 be 33 75 5a 3e
       -0.12571287 0.11331145 -0.25683054 0.2133377
000330 7e 4b 6e 3d 38 aa 46 3e 34 81 19 3e 34 0b 1a 3e
       0.058177464 0.19400871 0.14990693 0.15043336
000340 d9 c8 63 3e 71 34 32 3e 1d 02 28 3e 40 4b 01 be
       0.22244586 0.17402817 0.16407056 -0.12626362
000350 dc 0b eb 3c d4 f9 04 3e 1f e0 0a bd e0 73 8e 3d
       0.028692178 0.12985927 -0.033905145 0.06955695
000360 ac 6c 70 3d ea 1b 3f be e7 1e 4c bd 50 f0 84 3d
       0.058697388 -0.18662992 -0.04983416 0.064911485
000370 03 ee 53 3c bf eb 64 3e 7c 2b 34 be 4f 8c 23 bb
       0.012935164 0.22355555 -0.17594713 -0.0024955457
000380 bb 77 04 3e 9c 63 44 3e cd 10 25 bc a5 bf 8f 3e
       0.12936299 0.19178623 -0.010074806 0.280759
000390 d8 f5 17 bd 4e f8 1e 3d 60 37 57 bd c4 72 6d 3e
       -0.03709969 0.03881102 -0.052543044 0.23188311
0003a0 cb b8 26 be c7 9b b7 bd 48 9a 01 3d 47 f4 03 be
       -0.1628143 -0.08965259 0.031641275 -0.12886153
0003b0 54 28 ae 3c ec 2a 3c be 00 01 7d bd cb 59 1d be
       0.021259464 -0.18375748 -0.06176853 -0.15366285
0003c0 f8 02 32 3e d4 b5 f0 3c fb 19 a9 3c 15 de e5 bb
       0.17383945 0.029383577 0.020642271 -0.0070149996
0003d0 8e 02 4b 3d 82 9d 4b 3e 27 de fe 3d b2 fd 03 be
       0.049562983 0.19884303 0.12444716 -0.12889746
0003e0 1e e6 62 3d 1a 60 76 3e 6c 31 3d bb 50 56 65 bd
       0.055395238 0.24060097 -0.002886857 -0.055990517
0003f0 fb a6 29 be 87 37 34 3e 49 36 82 3e 1b 6a 82 bd
       -0.16567604 0.17599307 0.2543204 -0.06367894

linear_layer2.bias f4 [10]
000000 37 45 de ba e4 0d 61 3d e3 be 68 bd ad 72 45 3d
       -0.0016957883 0.054944888 -0.05682267 0.048205066
000010 27 b2 65 3d c5 89 53 bc 09 e6 c8 3c be c1 55 bd
       0.056078102 -0.012911265 0.024523752 -0.05218672
000020 68 42 31 3e 8c 89 df bc
       0.17310488 -0.027287267
